run11_train/layer3.npy (npy, 5328 bytes, 1 tensors)

array f8 [10, 65]
000000 be 90 42 3b ab 27 da bf 31 9b bd 65 89 15 a9 bf
       -0.4086711958609718 -0.04899243704749379
000010 84 cb 3b 1e 79 83 e9 3f e9 4e cf 37 c7 52 ed bf
       0.7972989645480628 -0.9163547601733316
000020 5a 48 9c 5c 1c f5 e0 bf 4f dd 30 4c 59 7d c0 bf
       -0.5299207505033892 -0.12882534237153684
000030 3a ef 0a df b2 b4 e5 bf 5e 24 83 f6 69 80 e3 3f
       -0.6783079487135872 0.6094255270665021
000040 16 55 a4 fe 78 3b c2 3f 61 0b 70 eb ca df e2 bf
       0.1424399608010069 -0.5898184393302978
000050 49 09 e3 b7 5f 71 ee 3f 53 0c a1 72 2e e7 e4 3f
       0.9513395873584979 0.6532203902101038
000060 b1 03 c6 19 2d 42 ca 3f 7a 5c 17 2b 2f a6 e8 3f
       0.2051445365759981 0.7702861634851523
000070 0d aa fb 81 54 9b d3 bf a2 71 3d 62 ba a7 d2 bf
       -0.3063555974355559 -0.29148730844260673
000080 dd 28 be 3f 11 fc e6 bf 87 26 11 e5 69 58 d4 bf
       -0.7182699437119272 -0.3178963410360684
000090 f2 fd 74 43 c2 25 af 3f d6 38 41 b6 87 37 d4 3f
       0.060834952101227815 0.3158892898399136
0000a0 a8 a6 66 29 f3 71 90 bf db 58 b7 33 9c 57 dd 3f
       -0.016059684183039963 0.458472300056554
0000b0 ae 2d 36 7a 0d 52 cc 3f df c3 54 f1 70 4c e9 3f
       0.2212540480362412 0.7905811990259471
0000c0 e2 b4 7e 72 b6 16 e5 bf c0 4a 81 07 a7 a3 93 3f
       -0.6590225445012516 0.01917897208506747
0000d0 de e3 8f c3 4b 9f e3 bf 7d 85 56 0c 79 33 ee 3f
       -0.6131953067371076 0.9437833062149107
0000e0 d2 66 64 5a 37 55 e1 3f a8 c6 72 ff d2 0a e4 3f
       0.5416523709747827 0.626321314737841
0000f0 a0 db 12 2e ac 56 b7 bf 14 ed 3a bb 43 bc ef bf
       -0.09116626858563714 -0.9917315155829862
000100 9c d6 e1 a7 11 39 e6 3f c9 58 cb ef 2e b1 dc bf
       0.6944664267491194 -0.4483144132367554
000110 46 98 15 fc a1 71 e6 3f e3 65 40 7e 1f fc e5 3f
       0.7013711856386713 0.6870267358637502
000120 a6 2f e6 02 f3 e0 e8 3f 71 8f 55 4e 8c 2e e8 bf
       0.7774596268295582 -0.7556821374860033
000130 a7 f6 ba 5b db 9b c1 bf 38 56 03 87 50 32 e7 3f
       -0.13756887415904837 0.7248919140790298
000140 31 b2 c2 ff 60 f0 ae 3f 31 98 9b c8 b5 56 e7 bf
       0.0604276954848938 -0.7293347280617636
000150 c1 0c 35 36 64 0b d4 bf 40 99 1d 96 e1 b0 e4 3f
       -0.3131952790610733 0.6465919429727265
000160 97 9b c7 8d 5b a2 cf 3f 8d 51 0d 7a 2f b7 ed 3f
       0.24714226172292506 0.928611505873549
000170 02 24 34 36 f2 1d e7 3f d2 b2 2e 56 8c ea ec 3f
       0.7224055346169964 0.9036313708544077
000180 04 96 05 6f 9e 3b d0 3f cb 14 38 1a 8e 40 ed 3f
       0.2536388477513756 0.9141302597132833
000190 55 df 62 f3 50 6a e3 3f b8 a4 dc 4e ce 2f dd 3f
       0.6067280534398188 0.4560428400169019
0001a0 b1 ee c6 52 4c c5 c8 bf 56 c3 df b4 44 91 e6 3f
       -0.19352106134271232 0.705232957143475
0001b0 40 ed b8 b0 23 2b b0 3f 74 f2 35 e4 8f b0 e0 bf
       0.06315825523863783 -0.5215529877892338
0001c0 df a8 24 fe fc 69 d6 bf 14 58 e0 25 a2 67 ce 3f
       -0.3502190095774846 0.23753764008932932
0001d0 59 93 72 b6 6b 0e ec 3f 78 17 ad 13 fb 2f db 3f
       0.8767603457859919 0.42480351373193725
0001e0 13 a2 c5 d5 d0 36 e2 3f 2e 90 e4 38 4c a5 c9 3f
       0.5691913771852931 0.200356986789417
0001f0 5c 30 f5 d7 30 09 ea bf 4c fe 3e 41 1a 0b ec 3f
       -0.8136219232487849 0.8763552927338849
000200 be c2 c6 13 5b 3b e7 3f e0 3d 54 1f 94 38 ec bf
       0.7259955774553288 -0.8819065677543527
000210 66 bd 60 cf 1d 5e d2 3f c4 02 22 6e 7e 89 d2 bf
       0.28699441196200437 -0.2896419597164306
000220 0c b9 79 d4 ff 32 e6 bf 9d 96 fd 0a b3 25 88 3f
       -0.6937255048667637 0.011790655873208872
000230 81 4c e0 87 7a 83 d2 bf e4 3b c4 a7 4b c1 e1 3f
       -0.2892748190799424 0.554845645588895
000240 ee 82 9a 84 7e b1 e0 bf 4e 27 b6 38 e7 0d dc bf
       -0.521666773787812 -0.43834858453975734
000250 6c 48 5b 04 67 7f e2 3f ba e7 56 eb 3b 51 c1 bf
       0.578052052029546 -0.13529156676469062
000260 90 82 2d 52 ef 84 b8 bf fa d4 22 0b b8 b4 df bf
       -0.09577842479985521 -0.49540520751482087
000270 f9 f1 21 6e 89 5e c2 bf 7d 69 cc fb 6b 9e 69 bf
       -0.14351003530090603 -0.003127299218602163
000280 db bf 31 60 5c 31 c0 bf a6 53 8e 00 e7 af ed 3f
       -0.12650637337674095 0.9277224551066083
000290 92 ac 0d 10 f9 22 9e 3f 6e 62 dc 8a d7 89 e6 3f
       0.029430286030600224 0.7043264114500525
0002a0 8a 1e 62 27 b3 74 a2 bf ec 77 5f 6b 0c c4 e9 3f
       -0.03604659896614944 0.8051817032935538
0002b0 81 5c f8 88 60 08 ee bf 80 c1 3b 7c 6b a8 ee 3f
       -0.9385225939939944 0.9580590654787073
0002c0 3e 78 e7 2b 1a 23 e5 bf ad cc 6c 6f 63 d1 b8 3f
       -0.6605349404815184 0.09694501371704929
0002d0 34 1d e7 91 28 88 ee bf 36 fb ee 39 7d 8f ed bf
       -0.954120907751451 -0.9237657672418667
0002e0 54 eb 7d 10 2c eb df bf 6f d3 ab 0a b9 10 d1 bf
       -0.4987287674954832 -0.26664567987545856
0002f0 cb 17 d3 d5 9f 97 c5 bf 6d bf 77 40 ff ee ed 3f
       -0.1686897081437436 0.935424447930911
000300 d3 6a b5 93 45 4d ee 3f 54 f8 b2 50 1e bd d3 bf
       0.9469325909552374 -0.3084178722455182
000310 19 6a 09 5b 60 04 ea 3f b0 63 96 4b 4d 74 ef 3f
       0.8130342271863952 0.9829470135037948
000320 5d 3a cd 50 76 15 dc bf 70 d0 0e df 7b 3a db 3f
       -0.438809946926005 0.4254445722865574
000330 e2 96 e8 cf 38 d1 e7 3f 50 c4 4b de 65 e0 bc bf
       0.7442897854532158 -0.11279904057643475
000340 bf bd 8f b0 9f da bf 3f 69 6b d1 d2 9a 9b ca 3f
       0.12442968426306943 0.20787368100976814
000350 27 d9 b5 57 00 6d ef bf dc 79 90 74 56 ec d6 bf
       -0.9820558274357482 -0.35817490943182206
000360 99 85 9a 79 32 61 e0 bf 9a 06 ba 9c 3a 89 ed 3f
       -0.5118648886747678 0.9230015812938348
000370 9c 85 6f e9 2f ee ee 3f 94 cc a4 48 52 92 d3 bf
       0.966575580529184 -0.30580575079074745
000380 f9 1a 6e a7 61 95 d1 bf 71 3e 30 f6 93 1a e6 bf
       -0.2747425208148538 -0.6907443817489832
000390 28 6d d1 6a 87 86 b1 bf e7 c5 22 b5 df f8 d7 bf
       -0.0684589992319401 -0.3745650547890293
0003a0 fc 29 f5 8b 52 a5 ef bf 91 aa 1c 18 4f 90 e8 3f
       -0.9889309629009513 0.7676158400475562
0003b0 49 1b 31 74 17 c8 c9 3f ee 58 61 f0 39 4a df 3f
       0.20141881154469335 0.4889054152930744
0003c0 99 f9 76 2e af 51 b4 bf d6 10 df ed c5 97 dd 3f
       -0.07937140354531493 0.4623884985887917
0003d0 86 d5 c0 d5 5f ec ed bf 8f b2 83 78 28 6a b9 bf
       -0.9351042914264986 -0.09927609388587143
0003e0 08 79 f3 a3 de 93 ea 3f 63 90 bd 4d 46 e5 ef 3f
       0.830550499169278 0.9967376249665104
0003f0 8c 68 2f e7 53 3c ec bf f5 fb a8 7f 09 dc e4 bf
       -0.8823642268501017 -0.6518599980698797
000400 9b 20 35 b0 2d 33 ec 3f da ef 78 2d 50 0d d4 3f
       0.8812473718217179 0.31331257286705994
000410 e3 38 b0 41 cd 5a e8 3f ab bf 6a 94 20 a0 d9 3f
       0.7610842020965517 0.4003983926186218
000420 36 cf ad 7c 10 e4 e5 3f f6 05 e1 52 70 cf 95 bf
       0.6840898928771597 -0.021299128588230652
000430 8d 1a 63 ea 9e 9b e4 bf 70 a5 3e e0 df f5 ea bf
       -0.6439966752885354 -0.8425139789371041
000440 cb 11 d1 12 8f 8f cf 3f 6a bc f8 56 c2 56 d8 bf
       0.24656856936247915 -0.3802953576404834
000450 96 b2 e4 69 98 7f e3 3f 87 7d e3 ba 77 85 c1 3f
       0.6093256061772816 0.1368856108228835
000460 c9 56 5c 09 06 4e e8 3f ab 01 3f 4c 6e 00 a7 bf
       0.7595243628336102 -0.04492516213167915
000470 59 b1 38 8a 4f fa c0 3f ba a6 fe ef f1 ff dd bf
       0.1326388764295057 -0.46874664723382475
000480 91 d9 94 24 8b 82 ef 3f 4f eb b3 29 ed c5 ea bf
       0.9846854891282409 -0.8366609396465295
000490 f6 fc 18 4b 56 a4 eb 3f c2 81 64 e9 be 10 b4 3f
       0.8638106791258042 0.07838051984845776
0004a0 50 9f 32 4a 8f 5e d4 3f 34 c7 08 17 d2 ff ef bf
       0.31827146764634495 -0.9999781083954304
0004b0 45 c8 2d 13 05 40 e7 bf fa 7d 7f 10 f0 56 ec bf
       -0.726564919909159 -0.8856125185229182
0004c0 50 bd 53 cd 93 62 eb 3f 9f 9e dc 79 62 8d d3 3f
       0.8557833681387965 0.30550443554464296
0004d0 dc 7d 76 ae f1 66 d3 bf b7 92 c2 19 cb 0e c2 3f
       -0.30315820729626153 0.1410764575749874
0004e0 ad 2e 60 e3 03 23 c4 3f e9 80 c6 31 d7 09 cf bf
       0.1573185787423105 -0.24248781137885736
0004f0 56 94 94 28 de 94 dc 3f 64 5a bf ae 4d 9e d9 3f
       0.4465861698429924 0.4002870756643573
000500 ad 8f ba 82 e4 61 ef 3f 82 b5 ce d0 8e ef 8b 3f
       0.9806997826858513 0.01364051413278378
000510 a4 fa ae 63 e0 2d e0 3f cf 34 ec e6 21 8e eb 3f
       0.5056001612609475 0.8611001501282319
000520 42 23 ce ba 6d 20 a0 bf fc b1 12 55 d7 46 e7 3f
       -0.0314974108251307 0.7273976003248772
000530 34 07 24 f9 38 d0 e0 3f bc c7 0e 8c 68 f6 e9 bf
       0.5254177919416407 -0.8113291488173142
000540 21 2f d8 2f 6c ca d6 3f 77 c4 72 64 5e f8 ea bf
       0.35610489532767714 -0.842818447292429
000550 4f 31 21 0b b5 29 c8 bf 17 80 f3 64 f9 2b ec 3f
       -0.18877280276718486 0.8803679439261057
000560 14 6d 4b 9f 46 8f b9 3f 41 bb 9b 2f 01 d0 e1 3f
       0.09984246624974374 0.5566411905145757
000570 91 39 a6 9e d7 95 b9 bf b1 9a 7b fa bc 9d d5 bf
       -0.09994266150736154 -0.33775257550443444
000580 f2 22 98 d5 24 cf ec bf d1 85 2b 8c f1 ce ee bf
       -0.9002861186755509 -0.9627616632171173
000590 4a b0 8c 47 01 04 e6 3f 41 13 65 db 7a f1 e8 bf
       0.6879888913586083 -0.7794775281005074
0005a0 a5 70 f0 f2 d3 3f 9d 3f 1c c4 56 87 17 25 b7 bf
       0.02856379671366995 -0.09040972761319249
0005b0 ac 91 ca b7 5c 00 e0 bf d9 bf e0 90 1e 92 c9 bf
       -0.5000442113565007 -0.19977171014897868
0005c0 48 4d 0f 77 9a 0e e9 3f 88 6f e8 01 e1 48 db bf
       0.7830326390634719 -0.42632317720721646
0005d0 56 51 62 9a 32 a0 d7 3f d4 d9 c6 af 02 6f e2 3f
       0.36915268971030935 0.5760510857715482
0005e0 fb b6 ca ba b2 d4 d1 bf 5d 2a 68 ae dd 4f e5 bf
       -0.278607065595551 -0.6659992605576225
0005f0 00 fb 8b 68 45 42 eb 3f 1d 98 fa 23 a9 0f 86 3f
       0.8518397371225035 0.010772057924736395
000600 f8 3a 09 d5 58 50 e8 bf 15 74 f9 6d e9 5b de 3f
       -0.7598079834804983 0.47435985316934764
000610 5c 46 61 c9 83 fe d7 bf 7a c4 8a 6e 2e 2b ef bf
       -0.3749093500710836 -0.9740211638474101
000620 f9 99 ca b0 50 1e d0 3f bd d5 d4 3d c0 db ef bf
       0.25185029282366106 -0.9955750663418069
000630 cd 15 57 00 35 db ca bf 94 85 a7 6f 99 3a e4 bf
       -0.20981466786012817 -0.6321532421826981
000640 39 8d dc e1 bc 8f de 3f ef 0d a7 8e e3 26 e7 bf
       0.4775230603865626 -0.7234971796210042
000650 57 18 ea 8d 53 f7 c1 3f 7a 08 4a d3 b7 69 e2 bf
       0.1403603022519657 -0.5754050375692394
000660 83 fe b8 dd a5 c6 ee bf 10 36 cc bc 22 eb e6 3f
       -0.9617490129966914 0.7162030875639989
000670 ad 40 24 bf 32 8d ee 3f f6 27 78 3c 27 c0 e9 bf
       0.9547361119494063 -0.8047062092821295
000680 c1 02 a2 6c 75 ef e0 3f 3a c2 22 6d f5 02 e6 3f
       0.5292307969794693 0.6878611690099838
000690 11 6b ff 0e 8e c6 91 3f 46 f6 57 64 a1 c9 e5 bf
       0.01735898939646591 -0.6808630904994935
0006a0 96 87 a3 3c 0e 51 ea bf 2a 14 3f b4 5f 0a e2 bf
       -0.8223944839812585 -0.5637663383901146
0006b0 67 3b 75 e0 21 b0 d3 bf a3 8e 51 78 6e a8 eb 3f
       -0.30762526435585474 0.8643104886982268
0006c0 12 58 c0 f9 37 b1 ed bf 3d c6 ae da a9 28 e7 3f
       -0.9278831365543303 0.7237138053080298
0006d0 0f 97 fd ed e2 6e a2 bf f1 30 15 c9 e5 09 c4 bf
       -0.036002246429047806 -0.1565520507668974
0006e0 99 01 cd 20 2e f1 e2 bf fc 5c 1f 71 61 ff c5 bf
       -0.5919409409180388 -0.17185609839973626
0006f0 e0 d0 20 5b 62 c0 db 3f f8 26 81 a9 fe d8 e3 bf
       0.43361719989048986 -0.6202386198649199
000700 26 9d 48 92 9d 94 e2 3f 24 39 d4 68 20 db d5 bf
       0.580641542158365 -0.34149942624289253
000710 f4 ed 30 39 e1 bf d9 3f a3 c3 c0 31 e2 5d da 3f
       0.4023364122874391 0.4119801984662052
000720 35 84 e5 dc 2d 76 b5 bf 1a 77 a8 b6 88 9d d6 bf
       -0.08383452074987548 -0.35336511457158937
000730 fe 57 68 f9 31 ab dd bf 1d df f3 37 0f de eb 3f
       -0.4635739265080473 0.8708568661522552
000740 e7 40 ab 68 02 92 eb 3f c6 61 37 24 db dd e6 3f
       0.8615734142604453 0.7145820338583284
000750 ea 8c 6b f5 56 0d c2 bf af 1a 4e 21 d5 fd eb bf
       -0.14103209479717488 -0.8747354174127703
000760 02 fd 62 06 66 6c dc 3f 78 11 86 5b 02 62 e4 3f
       0.4441161215181212 0.6369640147754998
000770 0f 8d 61 76 da 1d dc 3f 21 da 3e b1 cd ae e2 bf
       0.43932210503244645 -0.583838316137932
000780 54 d8 f3 02 a9 a2 82 3f 65 3a 08 74 e1 53 b3 3f
       0.009099312212566137 0.07549866755310004
000790 38 e3 1e 12 ac 48 c4 bf ff 74 a4 f9 1e 71 dc 3f
       -0.15846777806089007 0.44440435771123526
0007a0 ec 1c 92 a7 82 2c e2 3f 6f 3b d8 55 1f 2b dc bf
       0.5679333947054181 -0.440131982643769
0007b0 28 fb e5 d3 83 fb e2 3f b2 d9 46 5b b5 2e b2 bf
       0.5932025087966837 -0.07102521398960596
0007c0 f3 55 44 ac d3 a3 e6 bf 5d c6 45 a0 ef 34 bb bf
       -0.7074983944500545 -0.10627648985771417
0007d0 5b a6 28 7c a2 81 dc bf a1 f2 f1 b2 9c 05 cf bf
       -0.4454122745979469 -0.2423587678676045
0007e0 87 98 36 82 49 a4 c5 3f 75 a6 92 79 33 62 e8 bf
       0.16907614572591376 -0.7619874357671522
0007f0 4b dc bd a0 60 e8 ce bf dc 2d 71 a7 45 3a ee 3f
       -0.24146659706795712 0.9446132917741425
