run49_train/layer2.npy (npy, 848 bytes, 1 tensors)

array f8 [10, 9]
00000000: e4c9 faec 1c0f e4bf 8884 7b6f 7190 a2bf
00000010: 3fa7 2b7f f726 debf d1ff 35af 2516 e1bf
00000020: b2cf 96f1 b980 d2bf dd2d 1e16 cc4b d03f
00000030: 2873 f046 16cf dabf 2ffd 28a7 1c5e c73f
00000040: 7d2b 0bc7 6f9d bbbf 57a2 a1a8 c127 c1bf
00000050: 1e3b 4f77 e38f b23f 60e6 1291 73ef d6bf
00000060: 50af 11b4 6c81 e4bf 8bde 5cbe 97b5 c6bf
00000070: fc7e 2e0a 69c1 c23f 768b fbc0 a5c9 d4bf
00000080: c6d9 f17e 21af bbbf f945 fc42 b7e2 d0bf
00000090: 77b7 e2be b692 d1bf 005f 91dd 31d5 d1bf
000000a0: 89f6 da5d 6e05 debf e897 8d9b eb6e c2bf
000000b0: 0dac bf73 d6da dfbf 17b8 dc3a 001a c43f
000000c0: bc2c 2d89 a8a4 c8bf 805a 7b84 8e7b dabf
000000d0: 566b 4bd3 409f c3bf fa97 2d41 c8af e1bf
000000e0: a7d9 59ba 6c0f c73f e8a4 2a01 476d e0bf
000000f0: a472 3143 bf74 dbbf fc2d 1f35 2d39 c03f
00000100: 91df d938 dd39 dabf ddfd 3f14 6517 d4bf
00000110: 4cc6 2fed 868b b53f adc6 555c 72fd c0bf
00000120: 3cb0 5c25 b4e1 d3bf 40b8 81b6 bd57 cc3f
00000130: ab75 d6ee 7fa0 b6bf 0993 6464 eede dabf
00000140: 4235 0e03 aae5 c5bf 35ce 9297 23ef dcbf
00000150: 1e48 7201 8898 e1bf f756 ee61 e8da ce3f
00000160: 87c9 89df 82ac dfbf f4b3 d933 84d2 dcbf
00000170: 2ead a1fd 9b98 e3bf e67e 2696 c9af d63f
00000180: 8a25 d913 d749 a33f 650e 25cf 61ce a1bf
00000190: 66dd ae6d 9414 cdbf 16b9 af9b 211e d1bf
000001a0: d002 bb2a e2b2 dbbf 4420 b857 0728 e2bf
000001b0: 1ca3 3640 28bd ddbf 329c 347b 5675 ddbf
000001c0: 070c 135e 494c bcbf d471 4fcd 2360 d9bf
000001d0: f7dd 291d 71bf ddbf 0a61 6e19 bd8a d6bf
000001e0: 65dc 3548 cb55 e2bf 8554 5be5 1519 d93f
000001f0: f120 6f10 81f7 d13f 310e 1a4e 8735 b63f
00000200: f48a b22f 5696 d6bf fb01 9ff2 2257 963f
00000210: da4e 557c d76e bfbf d487 6e7d d399 d6bf
00000220: 5b6f 2b54 136e dfbf ae69 cc94 5248 d2bf
00000230: d609 74cf a29e ddbf beae 339c 375a cabf
00000240: bfa3 12d1 8d5c e1bf 7d45 a8bb e236 d53f
00000250: 81c2 d935 9b43 c03f d14f cead 306f d5bf
00000260: 8521 b18f 1421 cabf c110 ff2c 7eaa d7bf
00000270: 3c39 89c5 e878 debf 2bad 3549 84b6 643f
00000280: 69a2 bd1f a8fe e3bf 5d6a 3169 6973 e2bf
00000290: 56bb bc2d 7cbe d5bf 71b6 46af 78ad c6bf
000002a0: 4040 99a1 c812 c7bf 9c91 8b29 7c8d d8bf
000002b0: a920 da04 a021 e0bf 0f3f 1ed6 7ec3 be3f
000002c0: 4840 11ca abd9 d53f 4cec 55ba ae47 dabf
-0.6268448475369124 -0.03625826345319988 -0.47112834376331486 -0.5339535162056511 -0.2891068324345226 0.2546262947077745 -0.41888958861982184 0.18255956804385096
-0.1078710423418396 -0.13402577146486536 0.07250806486920822 -0.35836495559087744 -0.6407989041303868 -0.17741677088792004 0.1465274142947165 -0.3248075852008506
-0.1081410345958381 -0.26383763829753054 -0.27457970276997606 -0.2786373771427719 -0.46908148923453347 -0.14401002021185083 -0.49773179343782276 0.15704348444109037
-0.19252497385091327 -0.41379130304031975 -0.15329752270812474 -0.5527077935228129 0.1801582250515825 -0.5133395216736547 -0.429000678652111 0.12674489110791842
-0.4097817473589141 -0.31392790772949103 0.08416026392640069 -0.132734580121498 -0.31065086029662203 0.2214276448389132 -0.08838653164862957 -0.419856641807471
-0.17107129239267677 -0.4520958881578026 -0.5498695400476696 0.24105553418910805 -0.4949042494764843 -0.4503489023543914 -0.6123790696850955 0.35447921431658214
0.03767273061073258 -0.034777695213531946 -0.22719054561251112 -0.26746406749488594 -0.4327931802072671 -0.5673863137499287 -0.4646702410778276 -0.460286732023124
-0.11053904101122224 -0.39649291086041427 -0.4648096833038546 -0.35221793635857124 -0.5729729090079557 0.3921560993015379 0.28073145489589907 0.08675428063184466
-0.3529258218569986 0.02181677442399808 -0.12278506074408871 -0.35313880204387016 -0.49109347552961474 -0.28566422015287685 -0.4628073717032327 -0.2058782112793462
-0.542548092217764 0.33147495580586633 0.12706318025040633 -0.3349115083049102 -0.2041345311756794 -0.36978105920958276 -0.4761297158301152 0.002528437014623149
-0.6248360271393497 -0.576588349776397 -0.33975128618742667 -0.17716892774972196 -0.18026073351438932 -0.38363555962703244 -0.5041046232954801 0.12017052390569581
0.34141058667319557 -0.41062515446509873
