run5test4_train/layer3.npy (npy, 608 bytes, 1 tensors)

array f8 [10, 6]
000000 f8 24 82 74 36 bc da 3f 59 64 eb f6 e4 6b e1 bf
       0.41773759248515274 -0.5444207022329791
000010 6b 75 9b 5f 3d f1 d7 bf f3 f6 60 57 b7 7b ea bf
       -0.3740991052307751 -0.8276020723930898
000020 f1 c2 4b 9c d0 66 b9 bf fd 87 45 af 77 bd de bf
       -0.09922508064097336 -0.4803141795765667
000030 85 69 93 78 bf 31 b2 3f ed 14 73 1d aa 16 ec bf
       0.07107159322496244 -0.8777666640459337
000040 d0 a8 d8 a3 9b c2 ed bf 25 8c 7f eb 0a aa cb bf
       -0.9300058555720856 -0.21612679003655547
000050 fd c8 0e d2 c1 34 d2 bf 01 5b 91 f3 32 d0 d1 bf
       -0.2844700385422952 -0.2783324602691409
000060 84 2b 8c 79 2a 52 d8 bf 7f 74 86 68 49 2e e7 bf
       -0.3800150095927892 -0.7244002381809337
000070 45 00 19 14 2b e2 e0 bf 38 fc d4 df 91 5f ec bf
       -0.5276084320576123 -0.8866662379949792
000080 28 f8 c5 3f 28 ed bc bf 89 88 72 3c e5 78 c8 bf
       -0.11299373204198615 -0.1911894364503193
000090 66 e6 86 4d 35 f8 7b bf 2d 41 1d fc b6 4d d1 bf
       -0.006828506674020218 -0.2703683340123629
0000a0 ba 1a 61 34 e3 e6 ed bf 0b 89 19 5f 6d 39 dc bf
       -0.9344345114739874 -0.4410050800999136
0000b0 3f 91 68 73 1a 2a c8 bf bf 87 8e c8 df 18 e1 bf
       -0.1887848914640333 -0.5342863957523533
0000c0 11 0c 59 34 ac 2e d5 3f 60 18 12 46 2b 5e e0 bf
       0.33097367393583094 -0.5114952438896232
0000d0 7c 30 fc 7f 3f b6 e5 bf e7 b1 90 68 30 9e d4 bf
       -0.6784970760068201 -0.3221550961632417
0000e0 c4 c0 90 e4 fe a8 da bf 5d 3d b5 96 fa 58 e5 bf
       -0.4165646774372471 -0.6671116775050155
0000f0 3a 86 03 bf ca e4 d3 3f 69 50 52 ee c2 17 d6 bf
       0.3108393540734117 -0.3452002837523254
000100 85 7f 01 46 58 24 de bf a0 77 8c 88 89 5a e7 bf
       -0.4709683116579913 -0.7298019091574481
000110 ce 77 63 e0 5a 12 d2 3f 8f 0a 0a f2 49 d0 ee bf
       0.2823702994627383 -0.9629258849457346
000120 ec 30 85 af 80 8c ba 3f d8 26 19 35 94 6a e2 bf
       0.10370640072978049 -0.5755101239276099
000130 56 21 bd 3a 86 cf e3 bf 98 61 0e da f1 eb d1 bf
       -0.6190825602762213 -0.28002592367695334
000140 8c 4a b9 7e cb 0b b4 3f f3 83 e3 d9 44 c3 ec bf
       0.07830497592775937 -0.8988365417136478
000150 e7 4a c9 e8 70 5d d2 bf 65 9f 09 72 e1 cf e7 bf
       -0.28695318921124485 -0.7441260554596566
000160 3a 43 90 85 56 1b eb bf 8f 0b b0 0b 13 c2 de bf
       -0.8470871552145589 -0.4805953611504998
000170 ce b7 e3 70 18 70 dc bf 13 b0 1f 3c 05 bb c0 bf
       -0.44434176468246 -0.13070741115313975
000180 4a ab 70 96 1e 1f bb bf c3 70 9e bd 7d 37 a4 3f
       -0.10594359562734926 0.039485864064063424
000190 c4 b8 79 f8 c3 26 ee bf e1 ac ca 5f 09 0b da bf
       -0.9422321179424888 -0.406923621698935
0001a0 02 94 2a fa 8d 8d e6 bf 84 46 e6 68 2a 22 e7 bf
       -0.7047796140728908 -0.7229206131762145
0001b0 2d ca 7c e0 67 3a d1 3f e0 c0 e0 ac 4d 99 da bf
       0.26918980524638664 -0.4156068981419718
0001c0 b8 c5 59 96 8d 62 e2 bf e3 9a 1b 26 37 9d e5 bf
       -0.5745304047142588 -0.6754413360875698
0001d0 4d 34 aa 3d e4 72 ca 3f 50 c1 cd 87 0f 8a e7 bf
       0.20663121233920592 -0.7356031086365338
