MNIST_test1/5_train/layer3.npy (npy, 608 bytes, 1 tensors)

array f8 [10, 6]
000000 29 35 82 e3 cc 4a e0 3f c8 35 ad ec a4 0f e9 3f
       0.5091309016731077 0.7831596968259698
000010 d5 01 f3 90 99 ab d3 3f 1f 27 ff f6 06 1e eb 3f
       0.30734862475585817 0.847415430465137
000020 83 b5 4c 7a e7 0b e4 3f 4b a6 fa 36 db 9a e2 3f
       0.6264531506218848 0.5814033578692003
000030 8f 70 ae cc b6 11 cc bf 1e b4 92 2e 40 e5 d0 3f
       -0.21929059023102979 0.26399235294485546
000040 47 ab 5d ef 4a 52 bc 3f 29 da 29 80 1d 9a d6 3f
       0.11063068717855372 0.35315644756284087
000050 b2 15 c2 0e ff 49 ce bf a4 10 5b 41 18 5a b8 bf
       -0.23663318844425657 -0.09512473674391458
000060 1f be 56 c9 80 33 a3 bf ae 0f 20 a3 3c 8f e6 3f
       -0.03750231225728506 0.7049849687614278
000070 5d 80 56 53 bd 9d e9 3f b2 f4 14 0b b4 93 e6 3f
       0.8005053165143284 0.705530187267547
000080 5d 47 33 1d 75 b6 c2 3f bb be be be a9 f2 e3 3f
       0.1461931603030803 0.6233719563951675
000090 f8 bf bc 5a 9e 6e c7 3f b7 f9 91 63 bd 8e ca bf
       0.1830633109143489 -0.20748107301547034
0000a0 21 3b 1c e2 1c 3b cf 3f 6e f2 88 e6 2f 21 c7 3f
       0.2439914802602852 0.1807002902659351
0000b0 5e c0 ae 8b f6 9f d3 bf 8e bf 24 b8 ea 61 a4 bf
       -0.30663837090378887 -0.03980954645010036
0000c0 82 c5 de 9a 24 7a a8 3f d0 6e 81 49 be 22 d3 3f
       0.047806877045682775 0.29899556329995125
0000d0 df 7a e5 58 4d 1c c2 3f d0 14 08 8a 73 c8 d0 bf
       0.14148871269841032 -0.26223457793851157
0000e0 2d ed c8 0a 49 6e b7 bf be a6 8a 9a 0a 71 a9 3f
       -0.0915265704469916 0.049690562596266016
0000f0 d7 6d 9e 9e ba aa b0 3f c0 cb 3a 4e c6 d6 b7 3f
       0.06510511753588531 0.09312095079330529
000100 7f 78 bd f4 04 75 ba 3f a7 f5 20 ba d8 f7 d6 bf
       0.10334807372189124 -0.35887735535274107
000110 24 b5 6d 50 07 10 d5 3f 6b 1b 51 c8 22 ae be bf
       0.32910330633497353 -0.11984460249469257
000120 ce 5e 7e 7c 58 71 eb 3f c6 78 a5 49 5d 92 e9 3f
       0.8575861388698856 0.7991167486577744
000130 3b 92 38 ac 64 f5 d2 3f b8 25 6d 52 5e 7a db 3f
       0.29622761553244786 0.42934377717446237
000140 c8 96 ed de bf 94 ed 3f a0 7c ee 59 82 b3 cb 3f
       0.9244078973831273 0.21641568556967616
000150 1f 44 92 9d 69 e9 d2 3f 00 3c dc 22 6c 24 b5 3f
       0.29549637210681284 0.08258701182442962
000160 eb da ee 59 47 54 d7 bf cc 5e 09 54 c7 86 c0 bf
       -0.3645189646007753 -0.12911311724996322
000170 5a d0 a4 aa 08 57 d9 3f 02 83 e8 fe c9 6a c4 bf
       0.3959371248668099 -0.1595089430493531
000180 84 ca cf c6 e3 2a e8 3f 2b 0f 70 f4 51 d9 c3 3f
       0.7552355654755307 0.1550695842307673
000190 2b cb 78 52 d5 4a c7 3f 6a bd 0a 22 65 f6 e0 3f
       0.1819712307638722 0.5300775208360566
0001a0 0e 65 b0 9b e1 96 ea 3f 1b a4 89 0d 06 09 dc 3f
       0.8309181252290345 0.43805075952565325
0001b0 a2 eb 7e 78 c8 56 ca bf 4b dd a7 ab b5 e5 a8 bf
       -0.20577340968688157 -0.04862754555136436
0001c0 9a 53 fc 7e ca 01 d0 3f 6f 79 24 8e 50 10 d3 bf
       0.2501093139738316 -0.29787076836682663
0001d0 a7 5a 43 12 76 ac db 3f 7d 05 e2 86 b1 7d a9 bf
       0.43240119727617315 -0.04978709002990465
