run21_train/layer2.npy (npy, 608 bytes, 1 tensors)

array f8 [10, 6]
-0.5796998142830004 -0.007301714459055674 -0.4461745816560062 -0.15723682152609297 -0.112866747435757 -0.2608618009566273 -0.13045939065873052 -0.23509729990239217
-0.23903265056857012 -0.4667760538998754 -0.16579224261318434 -0.46256884346535115 -0.413368816777857 0.0015467625335430554 -0.13523501226443424 -0.5633105792633343
0.20709035098550813 -0.3989452108144773 -0.36303431490240456 -0.04444423464315264 -0.7279406475823743 -0.5833773083622856 0.2025404903599884 0.008261763215403627
-0.4973228344401917 -0.14514523410204888 -0.14057701617848886 -0.2665562461529542 -0.16692494926323787 -0.5141128638709345 -0.058136941095819766 -0.5226839705282263
0.2443642583446014 -0.5266879960094909 -0.612564940581783 -0.16403634890040525 -0.5800516312354167 0.08275798381273924 -0.20353395414544473 0.15194055019363545
0.2649723594263996 0.08899490065001138 -0.012558506203209717 0.058058525177253156 -0.5898286219537475 -0.10374387814511862 -0.33985754771560617 -0.6548508330062389
-0.6024806871251702 0.2990889560550045 -0.4935715497443918 -0.08851261014927139 -0.29818897252443594 -0.42048751332522477 0.2286484337670565 0.07147169492740613
-0.3365524392949615 -0.10709402970672788 -0.36024493979041083 -0.2863168806679622
00000000: e5f7 fa9f e68c e2bf e5e8 e60c 67e8 7dbf
00000010: c237 21d5 1f8e dcbf 4c3d 170f 5620 c4bf
00000020: 32df 0acd d5e4 bcbf 9d99 f8b1 f5b1 d0bf
00000030: 46ec 2ab0 e4b2 c0bf f9b5 3a17 ab17 cebf
00000040: 5321 6f34 9f98 cebf d693 83ab a8df ddbf
00000050: bf20 fa21 ae38 c5bf 3343 b559 ba9a ddbf
00000060: aed0 4f7b a274 dabf 987c c29f 9757 593f
00000070: 7496 7981 614f c1bf a5a8 6de8 a306 e2bf
00000080: bd63 66c6 ef81 ca3f 3004 567e 5188 d9bf
00000090: d238 7547 f43b d7bf a480 930c 65c1 a6bf
000000a0: 9573 592f 4a4b e7bf f19f 94e3 06ab e2bf
000000b0: 4a21 1bc7 d8ec c93f 8625 8a16 8beb 803f
000000c0: 9960 5e27 23d4 dfbf 76bc d178 1e94 c2bf
000000d0: d526 877b 6dfe c1bf ab5f f1ed 410f d1bf
000000e0: a86c fcf6 cb5d c5bf fee9 18d2 9c73 e0bf
000000f0: 4c5d 6409 20c4 adbf 37fd f1bb d3b9 e0bf
00000100: b45f f3f8 5347 cf3f 31cf c1c8 a0da e0bf
00000110: b832 4fca 219a e3bf 4ef5 f0a0 24ff c4bf
00000120: deb8 4470 c88f e2bf a067 f591 a02f b53f
00000130: 6412 578e 660d cabf e64a 02b7 c972 c33f
00000140: 5924 85a0 4ef5 d03f 1975 cdab 5ec8 b63f
00000150: ac68 6f2b 46b8 89bf bcd4 c7d5 d8b9 ad3f
00000160: ad27 3146 e0df e2bf 6622 cb73 f58e babf
00000170: ba2f 2fdf 39c0 d5bf 19a5 f0bb 89f4 e4bf
00000180: 2a93 f593 8547 e3bf 3477 3601 4624 d33f
00000190: 45d8 1820 ad96 dfbf 8aed df2d c3a8 b6bf
000001a0: 834c 4133 8715 d3bf d3ec 8675 44e9 dabf
000001b0: 1ad3 a714 5a44 cd3f c08a 4d10 f84b b23f
000001c0: f04b 0a3e 138a d5bf 88ef 2fab 836a bbbf
000001d0: 64c1 bcca 400e d7bf 95be b009 0453 d2bf
