test1_train/layer3.npy (npy, 608 bytes, 1 tensors)

array f8 [10, 6]
00000000: 02c6 f870 0149 d73f 78ff 2b52 0a34 d13f
00000010: 246c 18db 9a6e c93f 8055 c472 e981 b13f
00000020: 97f1 500a 693d de3f e14f fa35 452d d33f
00000030: ff0f 2d97 456d d63f 6c6c 08fa 0ce3 b4bf
00000040: 4c73 a4a9 2d3d e0bf 4cf4 0bfc 17f2 c5bf
00000050: dd53 4bd4 4459 c33f 2d84 654a b284 e7bf
00000060: dc7d ab0f 5a19 ce3f 5dc6 d8ba 4f50 e2bf
00000070: 2936 e285 2832 bbbf feab df65 091c e4bf
00000080: 7df4 e7e5 33d3 d63f c2c2 0d56 c8e8 d3bf
00000090: 2270 44e7 e903 a6bf 9a73 fb4a de0e dabf
000000a0: dd5f fae1 ed7e d2bf 799e 1e43 f147 e0bf
000000b0: b680 ed71 3a7a c83f 4eae 096b fa12 9cbf
000000c0: fcc6 5a87 e8b2 cf3f d930 c0c6 6e3b d1bf
000000d0: c861 3309 36a6 e5bf 76cd a6b7 f606 973f
000000e0: ada6 d5d0 842b abbf e079 d570 c137 d7bf
000000f0: 8bae e4f0 d160 e43f 874c 069e 8a60 c23f
00000100: 9c14 4577 a4be db3f 55e3 25da 6e15 df3f
00000110: 0f1a c3af a05f e43f a4c7 da03 48e4 cfbf
00000120: a092 231f 6683 d83f ea54 766f c582 e0bf
00000130: 76c9 7405 75da d9bf 7953 c189 ecec e1bf
00000140: 2c7a 8652 7fa2 cc3f 7f41 7129 6931 bd3f
00000150: 7afd f9ef a167 c3bf c41f 669f 7aea d7bf
00000160: 73ac 71be 6543 e3bf 57bb e673 6464 b43f
00000170: 44df c156 6d1a d03f 6301 a5c2 5eb4 c03f
00000180: 020c e06c ec0d a9bf e023 4fbd 0fcd 48bf
00000190: 595f cb89 605c b93f fe27 7093 da3e af3f
000001a0: f60e ef1e 9c27 cc3f f5c6 8479 5425 d33f
000001b0: 71c1 c07c 2f70 dd3f 02cf 069e e7d5 e2bf
000001c0: fa61 7191 6dec dfbf f4b5 3e02 f4c5 dbbf
000001d0: 7d92 5d9e 8bd6 d2bf 1781 cae2 d2b8 a73f
0.36383091003799006 0.26880128883930565 0.19868789384858687 0.06838854839255326 0.4724981880897529 0.2996380831839343 0.35041942370685314 -0.08158951858824687
-0.5074680627181833 -0.1714506130882988 0.15116176954202745 -0.7349482968385296 0.23514867558604535 -0.5723036431647405 -0.10623410481112984 -0.6284224500390108
0.35664079143300126 -0.31108292010962313 -0.04299860904777143 -0.40715749094470655 -0.28899714534918336 -0.5087820349626347 0.19123011172178445 -0.027416146071500606
0.24764734849082248 -0.26925248536350704 -0.6765394382192023 0.0224875020591759 -0.05306639718294313 -0.3627780534642664 0.6368188576647794 0.1435712119678991
0.43351089141317245 0.48568316749110824 0.636673301015266 -0.24915409267628974 0.3830199531642311 -0.515963285159754 -0.40395856411773623 -0.5601713839083536
0.22370902566486117 0.1140351988008259 -0.15160011499026976 -0.373686462080965 -0.6019772262201414 0.0796568663561009 0.2516129824866662 0.13050446037415062
-0.04893435315172924 -0.0007568671086285415 0.09906581272241279 0.06102641153127307 0.2199587966007283 0.2991534411149666 0.4599722593584579 -0.5886114202935178
-0.4988054199543793 -0.4339571020053363 -0.29434481110937566 0.04633196848340242
