run41_train/layer2.npy (npy, 608 bytes, 1 tensors)

array f8 [10, 6]
0	0xbfa595aa2d82107b	-0.04215747647779807
1	0xbfe00ec22e01dbf3	-0.5018015764788956
2	0xbfdf77fe5b536891	-0.4916988269666343
3	0xbfe23733999b6fe8	-0.5692384719982302
4	0x3fc6420b212aba1f	0.17389048690297756
5	0xbf84d80d164b822e	-0.010177709811103854
6	0x3fc238ef824526e6	0.14236253605695665
7	0xbfae212067eb9cb2	-0.05884648579176978
8	0xbfb10f53383d70c2	-0.06664009211584968
9	0xbfd5b0be63cde3e6	-0.33891257997998847
10	0xbfc33e4deae4356a	-0.15033887833889575
11	0xbfd8190505ac0687	-0.3765270762815835
12	0xbfe8d83f806a0c70	-0.7763974674311509
13	0xbfae65f1958297ec	-0.05937151861262166
14	0xbfcd07cc611fdb5b	-0.22680048696903551
15	0xbfb8b3a5bb452d3b	-0.09649120161082163
16	0xbfabdc19cee57fc4	-0.05441361094085509
17	0x3f9af1d0a93412c9	0.026313076331478755
18	0xbfd13d0388fc8fba	-0.2693489873656706
19	0xbfc2c388bc1325f3	-0.14659222777690636
20	0xbfe1f426c783b984	-0.5610536476868195
21	0x3fbbae5853c9dc93	0.10812904401415073
22	0x3fc9d9d888d8c86c	0.20196062738392884
23	0xbfd2f283313c54ac	-0.29605178650065045
24	0x3fbfa5c3e6ec4394	0.12362312686697258
25	0xbfe10e9561e9be8b	-0.5330302154888654
26	0xbfd2b8833aea3ae7	-0.2925117564526957
27	0xbfe2d310f0bfd2be	-0.5882649137625646
28	0xbfa26c127b8cfc28	-0.03598077543437511
29	0xbfb80a4e8e085d8b	-0.09390727012247717
30	0x3fc583304c486db6	0.16806606030227805
31	0xbfcbbe52196c6e33	-0.21674562684425921
32	0x3fad09dc318562a1	0.05671585182671391
33	0xbfe41e8dcabf17f0	-0.628729721059015
34	0xbfd75c32a832d57b	-0.3650023119510803
35	0xbfe7b65279ea56ec	-0.7410061246070803
36	0xbfe5ab7760d46b73	-0.6771809474188174
37	0x3fc8773b10bb941f	0.19113863293674258
38	0xbfcba2adb3fcebf5	-0.21590205467677462
39	0xbfd9bfc4bbfe8ae9	-0.402329619968596
40	0xbfc5d0f5a6473cc2	-0.1704394399552936
41	0xbfd9c009eb755101	-0.4023461150548116
42	0x3fbd494c21714e36	0.11439967934102743
43	0x3fc253d4afc39d29	0.14318331320030467
44	0x3fbf05b3b32f04a2	0.12118075489617522
45	0xbfe5fbe57d765ae6	-0.6869990778385187
46	0xbfaf40269875b0ca	-0.06103630648689913
47	0xbfc75a04ff6991cb	-0.18243467780406628
48	0xbfd2a5805f5e0b42	-0.2913514071771496
49	0xbfe43e1d6b6ce35c	-0.6325823877478842
50	0xbfcd49eeb7e065dc	-0.22881874063823104
51	0xbfdd6394f4de6922	-0.45920299447029056
52	0xbfa457b1691d25f2	-0.03973154457214524
53	0x3fb166d8ebec67f4	0.06797557601785781
54	0x3fbede3b44cdb9df	0.12057848386550728
55	0x3f8408dcbde104f8	0.009782528442999525
56	0xbfe70da1dd5eb102	-0.7204140971785196
57	0xbfd519c7948b12e2	-0.32969846254517965
58	0x3fe04e3c5739b0f6	0.5095502570743793
59	0xbfd60ab6cb4e5fee	-0.3444039330875047
