MNIST_test1/1_train/layer2.npy (npy, 608 bytes, 1 tensors)

array f8 [10, 6]
0	0x3fcdac8e560918a9	0.23182849122003304
1	0xbfdf532495b4e8ad	-0.489449640462804
2	0xbfded75708bfabe1	-0.48189330915800893
3	0xbfc192de76f89173	-0.13729458626870503
4	0xbfe5b3661c1ea379	-0.6781492757046258
5	0xbfd701c42d1952da	-0.3594828071993966
6	0xbfe333649fa168c6	-0.6000235669883061
7	0xbfe71efab410ea4c	-0.7225316540637521
8	0xbfd29ff528439ff4	-0.2910130398945505
9	0x3fb1e2829d306e69	0.06986252153040486
10	0xbfb991962c4633e4	-0.09987772541917611
11	0xbfd6c9c9dce856d3	-0.35606619427686076
12	0xbfc7b3bbcd06d100	-0.18517253409448386
13	0xbfd7904a7a930a62	-0.36818181963113805
14	0xbfb529f893482dc2	-0.0826716765952176
15	0xbfd3dcc4bfb02371	-0.3103496429399036
16	0xbfe66c69610e3703	-0.7007338424316177
17	0xbfd40b37fda33094	-0.31318473595889285
18	0x3fb63d863fdeca76	0.08687628802617006
19	0xbfcef058db3793b8	-0.2417098112483964
20	0xbfeacc55fce26501	-0.837443345942262
21	0xbf782687da53c5e8	-0.005896120715293197
22	0xbfc38f4c40f9e6cd	-0.15281060383477155
23	0xbfe721b9cacd6362	-0.7228669129354837
24	0xbfd12b6588723034	-0.268273719070524
25	0xbfdc70ab9a13d3bc	-0.4443768505728334
26	0xbfd8e2126aa2ee61	-0.38879833615985687
27	0xbfe2e35757511ca4	-0.5902516084105582
28	0xbfd8b7ef50ed974e	-0.3862264910043124
29	0xbf6d6d4f897d7915	-0.0035921624620832795
30	0xbfe2b30e90bd6a93	-0.5843575312568013
31	0x3f79895e8100b2f4	0.006234521060872512
32	0xbfe16d2b67e83540	-0.5445763616022887
33	0xbfd7c08e0a87d501	-0.3711276152456123
34	0x3fa0aa7d6b9bbc91	0.0325507348878712
35	0xbfe6035a1a459ac7	-0.6879091752169523
36	0xbfe39a9825bd899f	-0.6126213776699848
37	0x3f9c557ab1902a12	0.02766982754477893
38	0xbfd114e2c6e116e2	-0.26689977094461714
39	0x3fc29707541f2440	0.14523402793409623
40	0xbfe655a9e13faa1a	-0.6979569816006148
41	0xbfe3cc9b7e6acca1	-0.6187264889798777
42	0xbfc1d674e1725c32	-0.13935719497814741
43	0xbfe34daf52af3c2a	-0.6032330145770903
44	0xbfbb49ae5ad3cbfa	-0.1065930339571394
45	0xbfca8e3eb50617bf	-0.2074659713654778
46	0xbfcbca6eab8d5ed5	-0.21711524368833204
47	0xbfe655a6d376656f	-0.6979555254103341
48	0xbfd13d1093ff2aa5	-0.2693520970612247
49	0x3f76cb7639ca0025	0.005565130061427258
50	0xbfe3c6bd704677cd	-0.6180102532268791
51	0x3fd18c88967b9e21	0.27420248694986255
52	0xbfe6f1191e822ab2	-0.7169309230678975
53	0xbfe3b1f05e073dfe	-0.6154710613718064
54	0xbfdd1edd4afc9c5c	-0.4550088150303446
55	0xbfc971bf8a2b1ff6	-0.1987838196421305
56	0xbfd3423f03788c96	-0.3009183439155064
57	0xbfd18e4800d8d182	-0.274309159113976
58	0xbfd804e51bf87023	-0.3752987645291361
59	0xbfde87b270fa1619	-0.47703228981876716
